…
I1021 14:24:01.065160 18439 net.cpp:806] The NetState phase (0) differed from the phase (1) specified by a rule in layer accuracy
I1021 14:24:01.066144 18439 net.cpp:167] Initializing net from parameters:
I1021 14:24:01.066486 18439 net.cpp:168]
name: "LeNet"
state {
  phase: TRAIN
  level: 0
  stage: ""
}
engine: "MKL2017"
compile_net_state {
  bn_scale_remove: false
  bn_scale_merge: false
}
layer {
  name: "mnist"
  type: "Data"
  top: "data"
  top: "label"
  include {
    phase: TRAIN
  }
  transform_param {
    scale: 0.00390625
  }
  data_param {
    source: "examples/mnist/mnist_train_lmdb"
    batch_size: 64
    backend: LMDB
  }
}
layer {
  name: "conv1"
  type: "Convolution"
  bottom: "data"
  top: "conv1"
  param {
    lr_mult: 1
  }
  param {
    lr_mult: 2
  }
  convolution_param {
    num_output: 20
    kernel_size: 5
    stride: 1
    weight_filler {
      type: "xavier"
    }
    bias_filler {
      type: "constant"
    }
  }
}
layer {
  name: "pool1"
  type: "Pooling"
  bottom: "conv1"
  top: "pool1"
  pooling_param {
    pool: MAX
    kernel_size: 2
    stride: 2
  }
}
layer {
  name: "conv2"
  type: "Convolution"
  bottom: "pool1"
  top: "conv2"
  param {
    lr_mult: 1
  }
  param {
    lr_mult: 2
  }
  convolution_param {
    num_output: 50
    kernel_size: 5
    stride: 1
    weight_filler {
      type: "xavier"
    }
    bias_filler {
      type: "constant"
    }
  }
}
layer {
  name: "pool2"
  type: "Pooling"
  bottom: "conv2"
  top: "pool2"
  pooling_param {
    pool: MAX
    kernel_size: 2
    stride: 2
  }
}
layer {
  name: "ip1"
  type: "InnerProduct"
  bottom: "pool2"
  top: "ip1"
  param {
    lr_mult: 1
  }
  param {
    lr_mult: 2
  }
  inner_product_param {
    num_output: 500
    weight_filler {
      type: "xavier"
    }
    bias_filler {
      type: "constant"
    }
  }
}
layer {
  name: "relu1"
  type: "ReLU"
  bottom: "ip1"
  top: "ip1"
}
layer {
  name: "ip2"
  type: "InnerProduct"
  bottom: "ip1"
  top: "ip2"
  param {
    lr_mult: 1
  }
  param {
    lr_mult: 2
  }
  inner_product_param {
    num_output: 10
    weight_filler {
      type: "xavier"
    }
    bias_filler {
      type: "constant"
    }
  }
}
layer {
  name: "loss"
  type: "SoftmaxWithLoss"
  bottom: "ip2"
  bottom: "label"
  top: "loss"
}
I1021 14:24:01.138732 18439 layer_factory.hpp:114] Creating layer mnist
I1021 14:24:01.139554 18439 net.cpp:225] Creating Layer mnist
I1021 14:24:01.139905 18439 net.cpp:892] mnist -> data
I1021 14:24:01.139997 18439 net.cpp:892] mnist -> label
I1021 14:24:01.148941 18444 db_lmdb.cpp:72] Opened lmdb examples/mnist/mnist_train_lmdb
I1021 14:24:01.149139 18439 data_layer.cpp:80] output data size: 64,1,28,28
I1021 14:24:01.152392 18439 net.cpp:316] Setting up mnist
I1021 14:24:01.152500 18439 net.cpp:323] Top shape: 64 1 28 28 (50176)
I1021 14:24:01.152873 18439 net.cpp:323] Top shape: 64 (64)
I1021 14:24:01.156029 18439 net.cpp:331] Memory required for data: 200960
I1021 14:24:01.156352 18439 layer_factory.hpp:114] Creating layer conv1
I1021 14:24:01.156841 18439 net.cpp:225] Creating Layer conv1
I1021 14:24:01.157059 18439 net.cpp:918] conv1 <- data
I1021 14:24:01.157512 18439 net.cpp:892] conv1 -> conv1
I1021 14:24:01.158932 18439 net.cpp:316] Setting up conv1
I1021 14:24:01.158988 18439 net.cpp:323] Top shape: 64 20 24 24 (737280)
I1021 14:24:01.159234 18439 net.cpp:331] Memory required for data: 3150080
I1021 14:24:01.159739 18439 layer_factory.hpp:114] Creating layer pool1
I1021 14:24:01.159966 18439 net.cpp:225] Creating Layer pool1
I1021 14:24:01.160400 18439 net.cpp:918] pool1 <- conv1
I1021 14:24:01.161737 18439 net.cpp:892] pool1 -> pool1
I1021 14:24:01.162055 18439 net.cpp:316] Setting up pool1
I1021 14:24:01.164538 18439 net.cpp:323] Top shape: 64 20 12 12 (184320)
I1021 14:24:01.164831 18439 net.cpp:331] Memory required for data: 3887360
I1021 14:24:01.165314 18439 layer_factory.hpp:114] Creating layer conv2
I1021 14:24:01.165611 18439 net.cpp:225] Creating Layer conv2
I1021 14:24:01.165990 18439 net.cpp:918] conv2 <- pool1
I1021 14:24:01.166245 18439 net.cpp:892] conv2 -> conv2
I1021 14:24:01.168673 18439 net.cpp:316] Setting up conv2
I1021 14:24:01.168763 18439 net.cpp:323] Top shape: 64 50 8 8 (204800)
I1021 14:24:01.169087 18439 net.cpp:331] Memory required for data: 4706560
I1021 14:24:01.169605 18439 layer_factory.hpp:114] Creating layer pool2
I1021 14:24:01.169870 18439 net.cpp:225] Creating Layer pool2
I1021 14:24:01.170313 18439 net.cpp:918] pool2 <- conv2
I1021 14:24:01.171627 18439 net.cpp:892] pool2 -> pool2
I1021 14:24:01.171906 18439 net.cpp:316] Setting up pool2
I1021 14:24:01.174073 18439 net.cpp:323] Top shape: 64 50 4 4 (51200)
I1021 14:24:01.174394 18439 net.cpp:331] Memory required for data: 4911360
I1021 14:24:01.174857 18439 layer_factory.hpp:114] Creating layer ip1
I1021 14:24:01.175130 18439 net.cpp:225] Creating Layer ip1
I1021 14:24:01.175539 18439 net.cpp:918] ip1 <- pool2
I1021 14:24:01.175781 18439 net.cpp:892] ip1 -> ip1
I1021 14:24:01.179352 18439 net.cpp:316] Setting up ip1
I1021 14:24:01.179419 18439 net.cpp:323] Top shape: 64 500 (32000)
I1021 14:24:01.179693 18439 net.cpp:331] Memory required for data: 5039360
I1021 14:24:01.180162 18439 layer_factory.hpp:114] Creating layer relu1
I1021 14:24:01.180398 18439 net.cpp:225] Creating Layer relu1
I1021 14:24:01.181864 18439 net.cpp:918] relu1 <- ip1
I1021 14:24:01.182137 18439 net.cpp:879] relu1 -> ip1 (in-place)
I1021 14:24:01.185771 18439 net.cpp:316] Setting up relu1
I1021 14:24:01.186033 18439 net.cpp:323] Top shape: 64 500 (32000)
I1021 14:24:01.186473 18439 net.cpp:331] Memory required for data: 5167360
I1021 14:24:01.186730 18439 layer_factory.hpp:114] Creating layer ip2
I1021 14:24:01.187203 18439 net.cpp:225] Creating Layer ip2
I1021 14:24:01.187427 18439 net.cpp:918] ip2 <- ip1
I1021 14:24:01.187912 18439 net.cpp:892] ip2 -> ip2
I1021 14:24:01.188195 18439 net.cpp:316] Setting up ip2
I1021 14:24:01.188598 18439 net.cpp:323] Top shape: 64 10 (640)
I1021 14:24:01.188868 18439 net.cpp:331] Memory required for data: 5169920
I1021 14:24:01.189309 18439 layer_factory.hpp:114] Creating layer loss
I1021 14:24:01.189585 18439 net.cpp:225] Creating Layer loss
I1021 14:24:01.190001 18439 net.cpp:918] loss <- ip2
I1021 14:24:01.190254 18439 net.cpp:918] loss <- label
I1021 14:24:01.191828 18439 net.cpp:892] loss -> loss
I1021 14:24:01.192136 18439 layer_factory.hpp:114] Creating layer loss
…
